UNet_Nested(
  (SkFusion3): SKFusion(
    (avg_pool): AdaptiveAvgPool2d(output_size=1)
    (mlp): Sequential(
      (0): Conv2d(256, 32, kernel_size=(1, 1), stride=(1, 1), bias=False)
      (1): LeakyReLU(negative_slope=0.01)
      (2): Conv2d(32, 512, kernel_size=(1, 1), stride=(1, 1), bias=False)
    )
    (softmax): Softmax(dim=1)
  )
  (SkFusion2): SKFusion(
    (avg_pool): AdaptiveAvgPool2d(output_size=1)
    (mlp): Sequential(
      (0): Conv2d(128, 16, kernel_size=(1, 1), stride=(1, 1), bias=False)
      (1): LeakyReLU(negative_slope=0.01)
      (2): Conv2d(16, 256, kernel_size=(1, 1), stride=(1, 1), bias=False)
    )
    (softmax): Softmax(dim=1)
  )
  (SkFusion1): SKFusion(
    (avg_pool): AdaptiveAvgPool2d(output_size=1)
    (mlp): Sequential(
      (0): Conv2d(64, 8, kernel_size=(1, 1), stride=(1, 1), bias=False)
      (1): LeakyReLU(negative_slope=0.01)
      (2): Conv2d(8, 128, kernel_size=(1, 1), stride=(1, 1), bias=False)
    )
    (softmax): Softmax(dim=1)
  )
  (SkFusion0): SKFusion(
    (avg_pool): AdaptiveAvgPool2d(output_size=1)
    (mlp): Sequential(
      (0): Conv2d(32, 4, kernel_size=(1, 1), stride=(1, 1), bias=False)
      (1): LeakyReLU(negative_slope=0.01)
      (2): Conv2d(4, 64, kernel_size=(1, 1), stride=(1, 1), bias=False)
    )
    (softmax): Softmax(dim=1)
  )
  (maxpool): MaxPool2d(kernel_size=2, stride=2, padding=0, dilation=1, ceil_mode=False)
  (conv00): unetConv2(
    (conv1): Sequential(
      (0): Conv2d(3, 32, kernel_size=(3, 3), stride=(1, 1), padding=(1, 1))
      (1): InstanceNorm2d(32, eps=1e-05, momentum=0.1, affine=False, track_running_stats=False)
      (2): LeakyReLU(negative_slope=0.2, inplace=True)
    )
    (conv2): Sequential(
      (0): Conv2d(32, 32, kernel_size=(3, 3), stride=(1, 1), padding=(1, 1))
      (1): InstanceNorm2d(32, eps=1e-05, momentum=0.1, affine=False, track_running_stats=False)
      (2): LeakyReLU(negative_slope=0.2, inplace=True)
    )
  )
  (conv10): unetConv2(
    (conv1): Sequential(
      (0): Conv2d(32, 64, kernel_size=(3, 3), stride=(1, 1), padding=(1, 1))
      (1): InstanceNorm2d(64, eps=1e-05, momentum=0.1, affine=False, track_running_stats=False)
      (2): LeakyReLU(negative_slope=0.2, inplace=True)
    )
    (conv2): Sequential(
      (0): Conv2d(64, 64, kernel_size=(3, 3), stride=(1, 1), padding=(1, 1))
      (1): InstanceNorm2d(64, eps=1e-05, momentum=0.1, affine=False, track_running_stats=False)
      (2): LeakyReLU(negative_slope=0.2, inplace=True)
    )
  )
  (conv20): unetConv2(
    (conv1): Sequential(
      (0): Conv2d(64, 128, kernel_size=(3, 3), stride=(1, 1), padding=(1, 1))
      (1): InstanceNorm2d(128, eps=1e-05, momentum=0.1, affine=False, track_running_stats=False)
      (2): LeakyReLU(negative_slope=0.2, inplace=True)
    )
    (conv2): Sequential(
      (0): Conv2d(128, 128, kernel_size=(3, 3), stride=(1, 1), padding=(1, 1))
      (1): InstanceNorm2d(128, eps=1e-05, momentum=0.1, affine=False, track_running_stats=False)
      (2): LeakyReLU(negative_slope=0.2, inplace=True)
    )
  )
  (conv30): unetConv2(
    (conv1): Sequential(
      (0): Conv2d(128, 256, kernel_size=(3, 3), stride=(1, 1), padding=(1, 1))
      (1): InstanceNorm2d(256, eps=1e-05, momentum=0.1, affine=False, track_running_stats=False)
      (2): LeakyReLU(negative_slope=0.2, inplace=True)
    )
    (conv2): Sequential(
      (0): Conv2d(256, 256, kernel_size=(3, 3), stride=(1, 1), padding=(1, 1))
      (1): InstanceNorm2d(256, eps=1e-05, momentum=0.1, affine=False, track_running_stats=False)
      (2): LeakyReLU(negative_slope=0.2, inplace=True)
    )
  )
  (conv40): unetConv2(
    (conv1): Sequential(
      (0): Conv2d(256, 512, kernel_size=(3, 3), stride=(1, 1), padding=(1, 1))
      (1): InstanceNorm2d(512, eps=1e-05, momentum=0.1, affine=False, track_running_stats=False)
      (2): LeakyReLU(negative_slope=0.2, inplace=True)
    )
    (conv2): Sequential(
      (0): Conv2d(512, 512, kernel_size=(3, 3), stride=(1, 1), padding=(1, 1))
      (1): InstanceNorm2d(512, eps=1e-05, momentum=0.1, affine=False, track_running_stats=False)
      (2): LeakyReLU(negative_slope=0.2, inplace=True)
    )
    (conv3): Sequential(
      (0): Conv2d(512, 512, kernel_size=(3, 3), stride=(1, 1), padding=(1, 1))
      (1): InstanceNorm2d(512, eps=1e-05, momentum=0.1, affine=False, track_running_stats=False)
      (2): LeakyReLU(negative_slope=0.2, inplace=True)
    )
    (conv4): Sequential(
      (0): Conv2d(512, 512, kernel_size=(3, 3), stride=(1, 1), padding=(1, 1))
      (1): InstanceNorm2d(512, eps=1e-05, momentum=0.1, affine=False, track_running_stats=False)
      (2): LeakyReLU(negative_slope=0.2, inplace=True)
    )
  )
  (up_concat01): unetUp(
    (conv): unetConv2(
      (conv1): Sequential(
        (0): Conv2d(64, 32, kernel_size=(3, 3), stride=(1, 1), padding=(1, 1))
        (1): InstanceNorm2d(32, eps=1e-05, momentum=0.1, affine=False, track_running_stats=False)
        (2): LeakyReLU(negative_slope=0.2, inplace=True)
      )
      (conv2): Sequential(
        (0): Conv2d(32, 32, kernel_size=(3, 3), stride=(1, 1), padding=(1, 1))
        (1): InstanceNorm2d(32, eps=1e-05, momentum=0.1, affine=False, track_running_stats=False)
        (2): LeakyReLU(negative_slope=0.2, inplace=True)
      )
    )
    (up): ConvTranspose2d(64, 32, kernel_size=(4, 4), stride=(2, 2), padding=(1, 1))
  )
  (up_concat11): unetUp(
    (conv): unetConv2(
      (conv1): Sequential(
        (0): Conv2d(128, 64, kernel_size=(3, 3), stride=(1, 1), padding=(1, 1))
        (1): InstanceNorm2d(64, eps=1e-05, momentum=0.1, affine=False, track_running_stats=False)
        (2): LeakyReLU(negative_slope=0.2, inplace=True)
      )
      (conv2): Sequential(
        (0): Conv2d(64, 64, kernel_size=(3, 3), stride=(1, 1), padding=(1, 1))
        (1): InstanceNorm2d(64, eps=1e-05, momentum=0.1, affine=False, track_running_stats=False)
        (2): LeakyReLU(negative_slope=0.2, inplace=True)
      )
    )
    (up): ConvTranspose2d(128, 64, kernel_size=(4, 4), stride=(2, 2), padding=(1, 1))
  )
  (up_concat21): unetUp(
    (conv): unetConv2(
      (conv1): Sequential(
        (0): Conv2d(256, 128, kernel_size=(3, 3), stride=(1, 1), padding=(1, 1))
        (1): InstanceNorm2d(128, eps=1e-05, momentum=0.1, affine=False, track_running_stats=False)
        (2): LeakyReLU(negative_slope=0.2, inplace=True)
      )
      (conv2): Sequential(
        (0): Conv2d(128, 128, kernel_size=(3, 3), stride=(1, 1), padding=(1, 1))
        (1): InstanceNorm2d(128, eps=1e-05, momentum=0.1, affine=False, track_running_stats=False)
        (2): LeakyReLU(negative_slope=0.2, inplace=True)
      )
    )
    (up): ConvTranspose2d(256, 128, kernel_size=(4, 4), stride=(2, 2), padding=(1, 1))
  )
  (up_concat31): unetUp(
    (conv): unetConv2(
      (conv1): Sequential(
        (0): Conv2d(512, 256, kernel_size=(3, 3), stride=(1, 1), padding=(1, 1))
        (1): InstanceNorm2d(256, eps=1e-05, momentum=0.1, affine=False, track_running_stats=False)
        (2): LeakyReLU(negative_slope=0.2, inplace=True)
      )
      (conv2): Sequential(
        (0): Conv2d(256, 256, kernel_size=(3, 3), stride=(1, 1), padding=(1, 1))
        (1): InstanceNorm2d(256, eps=1e-05, momentum=0.1, affine=False, track_running_stats=False)
        (2): LeakyReLU(negative_slope=0.2, inplace=True)
      )
    )
    (up): ConvTranspose2d(512, 256, kernel_size=(4, 4), stride=(2, 2), padding=(1, 1))
  )
  (up_concat02): unetUp(
    (conv): unetConv2(
      (conv1): Sequential(
        (0): Conv2d(96, 32, kernel_size=(3, 3), stride=(1, 1), padding=(1, 1))
        (1): InstanceNorm2d(32, eps=1e-05, momentum=0.1, affine=False, track_running_stats=False)
        (2): LeakyReLU(negative_slope=0.2, inplace=True)
      )
      (conv2): Sequential(
        (0): Conv2d(32, 32, kernel_size=(3, 3), stride=(1, 1), padding=(1, 1))
        (1): InstanceNorm2d(32, eps=1e-05, momentum=0.1, affine=False, track_running_stats=False)
        (2): LeakyReLU(negative_slope=0.2, inplace=True)
      )
    )
    (up): ConvTranspose2d(64, 32, kernel_size=(4, 4), stride=(2, 2), padding=(1, 1))
  )
  (up_concat12): unetUp(
    (conv): unetConv2(
      (conv1): Sequential(
        (0): Conv2d(192, 64, kernel_size=(3, 3), stride=(1, 1), padding=(1, 1))
        (1): InstanceNorm2d(64, eps=1e-05, momentum=0.1, affine=False, track_running_stats=False)
        (2): LeakyReLU(negative_slope=0.2, inplace=True)
      )
      (conv2): Sequential(
        (0): Conv2d(64, 64, kernel_size=(3, 3), stride=(1, 1), padding=(1, 1))
        (1): InstanceNorm2d(64, eps=1e-05, momentum=0.1, affine=False, track_running_stats=False)
        (2): LeakyReLU(negative_slope=0.2, inplace=True)
      )
    )
    (up): ConvTranspose2d(128, 64, kernel_size=(4, 4), stride=(2, 2), padding=(1, 1))
  )
  (up_concat22): unetUp(
    (conv): unetConv2(
      (conv1): Sequential(
        (0): Conv2d(384, 128, kernel_size=(3, 3), stride=(1, 1), padding=(1, 1))
        (1): InstanceNorm2d(128, eps=1e-05, momentum=0.1, affine=False, track_running_stats=False)
        (2): LeakyReLU(negative_slope=0.2, inplace=True)
      )
      (conv2): Sequential(
        (0): Conv2d(128, 128, kernel_size=(3, 3), stride=(1, 1), padding=(1, 1))
        (1): InstanceNorm2d(128, eps=1e-05, momentum=0.1, affine=False, track_running_stats=False)
        (2): LeakyReLU(negative_slope=0.2, inplace=True)
      )
    )
    (up): ConvTranspose2d(256, 128, kernel_size=(4, 4), stride=(2, 2), padding=(1, 1))
  )
  (up_concat03): unetUp(
    (conv): unetConv2(
      (conv1): Sequential(
        (0): Conv2d(128, 32, kernel_size=(3, 3), stride=(1, 1), padding=(1, 1))
        (1): InstanceNorm2d(32, eps=1e-05, momentum=0.1, affine=False, track_running_stats=False)
        (2): LeakyReLU(negative_slope=0.2, inplace=True)
      )
      (conv2): Sequential(
        (0): Conv2d(32, 32, kernel_size=(3, 3), stride=(1, 1), padding=(1, 1))
        (1): InstanceNorm2d(32, eps=1e-05, momentum=0.1, affine=False, track_running_stats=False)
        (2): LeakyReLU(negative_slope=0.2, inplace=True)
      )
    )
    (up): ConvTranspose2d(64, 32, kernel_size=(4, 4), stride=(2, 2), padding=(1, 1))
  )
  (up_concat13): unetUp(
    (conv): unetConv2(
      (conv1): Sequential(
        (0): Conv2d(256, 64, kernel_size=(3, 3), stride=(1, 1), padding=(1, 1))
        (1): InstanceNorm2d(64, eps=1e-05, momentum=0.1, affine=False, track_running_stats=False)
        (2): LeakyReLU(negative_slope=0.2, inplace=True)
      )
      (conv2): Sequential(
        (0): Conv2d(64, 64, kernel_size=(3, 3), stride=(1, 1), padding=(1, 1))
        (1): InstanceNorm2d(64, eps=1e-05, momentum=0.1, affine=False, track_running_stats=False)
        (2): LeakyReLU(negative_slope=0.2, inplace=True)
      )
    )
    (up): ConvTranspose2d(128, 64, kernel_size=(4, 4), stride=(2, 2), padding=(1, 1))
  )
  (up_concat04): unetUp(
    (conv): unetConv2(
      (conv1): Sequential(
        (0): Conv2d(160, 32, kernel_size=(3, 3), stride=(1, 1), padding=(1, 1))
        (1): InstanceNorm2d(32, eps=1e-05, momentum=0.1, affine=False, track_running_stats=False)
        (2): LeakyReLU(negative_slope=0.2, inplace=True)
      )
      (conv2): Sequential(
        (0): Conv2d(32, 32, kernel_size=(3, 3), stride=(1, 1), padding=(1, 1))
        (1): InstanceNorm2d(32, eps=1e-05, momentum=0.1, affine=False, track_running_stats=False)
        (2): LeakyReLU(negative_slope=0.2, inplace=True)
      )
    )
    (up): ConvTranspose2d(64, 32, kernel_size=(4, 4), stride=(2, 2), padding=(1, 1))
  )
  (final_1): Conv2d(32, 3, kernel_size=(7, 7), stride=(1, 1), padding=(3, 3))
  (final_2): Conv2d(32, 3, kernel_size=(7, 7), stride=(1, 1), padding=(3, 3))
  (final_3): Conv2d(32, 3, kernel_size=(7, 7), stride=(1, 1), padding=(3, 3))
  (final_4): Conv2d(32, 3, kernel_size=(7, 7), stride=(1, 1), padding=(3, 3))
  (avg_pool): AdaptiveAvgPool2d(output_size=1)
  (fc): Sequential(
    (0): Linear(in_features=512, out_features=3, bias=True)
    (1): Tanh()
  )
)
Loading data...
Data loaded.
Loading data...
Data loaded.
  0%|                                                                                                                                      | 0/8000 [00:00<?, ?it/s]









Epoch [1/8000]: 100%|████████████████████████████████████████████████████████████████████████████| 23/23 [00:21<00:00,  1.47it/s, train_loss=-3.45, train_psnr=19.3]
…
